models/deskmodel.pth (torch, 816000 bytes, 4 tensors)

hidden.weight f4 [256, 784]
000000 66 f2 c7 3c 86 5d 9f 3c 90 ec 09 3d ec 90 93 3c
       0.024407577 0.019453775 0.03367287 0.01801344
000010 e5 76 7a 3d c5 75 10 3c c1 7e 05 3d 33 dc 17 3d
       0.061148543 0.008817141 0.032591585 0.037075233
000020 ed 58 fd 3c 6d 46 ba 3c 04 9f c7 3d 2a c9 16 3e
       0.030926192 0.02273866 0.09747127 0.14725175
000030 6d fc e6 3d 99 42 0d 3e 1c 6d 95 bd 3a bd 93 bd
       0.11278615 0.13794936 -0.072962016 -0.072138265
000040 0f 4b 20 bd b2 51 8f 3d 04 ee c1 3c b6 9b 92 3d
       -0.03913408 0.06998004 0.023673065 0.07158606
000050 9a 1d 6c 3c f9 70 d9 3c b7 5e f1 3c 2a d4 a1 3c
       0.014411354 0.026543127 0.029464109 0.019754488
000060 1c 2b 69 3c 93 02 80 3d 2d 0b 89 3d 87 61 14 3d
       0.0142314695 0.06250491 0.06691585 0.03622582
000070 30 f0 72 3c 17 a2 07 3d 89 2a cd 3c 1f 71 77 3d
       0.014827773 0.033113565 0.025044696 0.060410615
000080 95 42 60 3d 55 d7 a1 3b 5f e6 86 3d 43 61 01 3d
       0.054750998 0.0049389997 0.065869085 0.031586897
000090 ce a4 15 3d e5 9d 88 3d ce 17 bd 3d 2a a8 fe 3d
       0.036534123 0.06670741 0.09233056 0.124344185
0000a0 ab a5 04 3e 8b 5b 75 3d 39 8a a5 bc da a9 35 be
       0.12953822 0.059901755 -0.020207511 -0.17740574
0000b0 f5 2d 26 be 27 fe 54 bd 43 aa bb 3c 01 1c e8 3c
       -0.16228469 -0.05200019 0.022908336 0.028333666
0000c0 23 63 25 3d 82 ea d3 3c a1 25 84 3d 4c af 6f 3c
       0.040377747 0.025868658 0.0645249 0.014629196
0000d0 61 22 89 3d b5 a2 38 3d 22 91 2c 3c b8 ca 7c 3d
       0.066960104 0.045077045 0.010532649 0.061716765
0000e0 01 d6 24 3d f2 3e e1 3c 49 2d 3b 3d 13 85 4b 3d
       0.040243153 0.027495835 0.045697484 0.049687456
0000f0 29 97 ef 3b c3 0d 8b 3b e1 5c 80 3d 60 fd 44 3d
       0.007311721 0.004243584 0.06267715 0.0480932
000100 38 91 06 3e d0 d7 ef 3c 40 28 c4 3d a8 09 1b 3e
       0.13141334 0.029277712 0.095779896 0.15140402
000110 ca e8 ca 3d b9 7b cf bc 15 93 96 3d 6f d6 29 bd
       0.09907682 -0.02532755 0.073522724 -0.041464265
000120 da a7 11 be c1 4e 90 3c d1 c5 55 3d 13 40 4e 3d
       -0.14224187 0.017615678 0.052190606 0.050354075
000130 00 2f 85 3d fe 32 e9 3d 27 6a 91 3d 73 db b1 3b
       0.06503105 0.11386679 0.07100325 0.0054277717
000140 2b ce db 3b ea 7b bb 3c 1b b8 5e 3d 03 e9 87 3d
       0.0067079267 0.022886235 0.054374795 0.0663624
000150 e9 4e 5b 3d 25 9f 1e 3c b5 7f 89 3b ff 67 58 3c
       0.05354205 0.009681498 0.004196132 0.013208388
000160 2a aa 65 3d cc 6c 30 3d 16 b9 24 3c 73 d9 20 3d
       0.056070484 0.043072507 0.010053894 0.039269876
000170 1c 9f 81 bd f6 9f 46 3e 47 2e 1f 3e 9a 6c 07 3e
       -0.06329176 0.19396958 0.15544997 0.13225022
000180 49 7b e2 bb cf a1 18 bd bd 47 4b 3e a1 a2 2c 3e
       -0.0069116694 -0.037263688 0.19851585 0.16858913
000190 53 a4 cd bc 9e bd 6d 3d cf 19 ae 3d dc dd ef 3d
       -0.02510277 0.05804216 0.08501016 0.11712238
0001a0 b9 a2 82 3d 20 54 33 3d 63 c2 c5 3d 3e 86 aa 3d
       0.06378693 0.0437814 0.09656217 0.08326386
0001b0 4a 34 21 3c b9 7a be 3c b3 2e 83 3c f7 ef 03 3d
       0.009839127 0.023251878 0.016013479 0.03221127
0001c0 cd 1b 97 3d 2d 2d 99 3d 51 ac 7b 3d 34 a7 0d 3d
       0.073783495 0.0747932 0.06144363 0.034583285
0001d0 b4 b8 56 3c 89 db ea b9 5e 69 b5 bb 97 40 7a 3c
       0.01310556 -0.00044795524 -0.0055362424 0.0152741885
0001e0 6c 6f 97 3c 58 6a da ba d0 26 a1 bd 47 fa 0b 3e
       0.018485747 -0.0016663773 -0.07868731 0.13669692
0001f0 93 e7 06 3e ab b1 9b bd 2b e4 9b bd e3 4a f2 bc
       0.13174276 -0.07602247 -0.07611879 -0.029576724
000200 f5 6f cc bd 44 fc d0 bd 72 6f 13 be ad ca fa bd
       -0.099822916 -0.10204366 -0.14397982 -0.122456886
000210 0d ab 4a bd 65 54 19 3c 52 77 c0 3d 30 b4 64 3d
       -0.049479533 0.0093585 0.093977585 0.055835903
000220 69 9b 9a 3d a2 85 be 3c d6 3d 48 3c d8 3b 61 3c
       0.075491734 0.02325708 0.012221774 0.013747178
000230 bd 10 99 3d 65 3c 8a 3d ae 18 8a 3d dd 1e 43 3d
       0.07473896 0.067498006 0.067429885 0.047636855
000240 9e 8e 3d 3d 01 e4 65 bb 5d bf 5e ba eb a8 8f 3c
       0.04627859 -0.0035078528 -0.0008497143 0.017536601
000250 ca 01 29 3a f3 30 e2 3d 1f cd ca 3d ad 97 57 3d
       0.0006447105 0.110444926 0.09902405 0.052634884
000260 4b e0 52 bc be b4 89 3d 74 cb c6 bc c6 41 0b bc
       -0.012870858 0.06723927 -0.024266936 -0.008499568
000270 54 76 98 bc 63 59 1d be d7 ea 6a be e1 32 a3 be
       -0.01861111 -0.1536613 -0.22941147 -0.31874755
000280 29 55 8f bd d9 1f 5b 3d 2b 59 1c bd 51 f4 90 bc
       -0.06998665 0.05349717 -0.038170975 -0.017694624
000290 43 4a 3e bd 06 2d 4f 3d 76 59 8d 3c 3f 7c 3b 3d
       -0.04645754 0.050580047 0.017254572 0.045772787
0002a0 6d 43 97 3d 43 97 f2 3c 29 78 82 3d ff c8 6f 3c
       0.07385907 0.029613143 0.06370575 0.014635324
0002b0 14 2a 3a 3c a7 83 0a 3d 0c 72 04 bd 47 ae f8 3c
       0.011362571 0.03381696 -0.032335326 0.03035654
0002c0 e2 50 5f 3d b4 bc bc 3d 14 b8 bf 3d ef 45 7e bc
       0.054520495 0.0921568 0.09361282 -0.015519603
0002d0 df 4e 19 3d 99 35 2f ba dd 09 ee bd c1 46 ad bd
       0.037428733 -0.0006683707 -0.11622975 -0.08460761
0002e0 01 8b e3 bd 1d 92 39 be e2 86 b2 be 75 d6 8e be
       -0.11110497 -0.18122144 -0.34868532 -0.27897993
0002f0 36 3a 4c be 26 4b 41 3d dc 81 02 3e ca d7 c6 3d
       -0.1994408 0.047190808 0.1274485 0.09709127
000300 f3 63 8c bb eb 61 b5 3c 60 b8 02 3d e0 7f 98 3d
       -0.004284376 0.022141417 0.031914115 0.07446265
000310 7f 19 93 3d 57 d1 31 3d fc 56 e5 3c e9 d9 42 3d
       0.07182597 0.043412533 0.027995579 0.047571097
000320 c9 92 2c bd d9 2a ee bd 08 91 29 3c 51 e2 ff 3d
       -0.042132173 -0.11629266 0.01034952 0.12494338
000330 ef 50 09 3e 2f b0 13 3d fb da 89 bd bc 77 50 3d
       0.1340978 0.036056694 -0.0673122 0.050895438
000340 30 32 48 bd 64 1a 55 be 87 54 c1 bd ee b6 38 be
       -0.048875988 -0.20810848 -0.094399504 -0.18038532
000350 83 6a fd bd 5f 1a 30 be 23 04 15 be 67 70 68 be
       -0.12373831 -0.1719756 -0.1455236 -0.22699128
000360 66 36 13 bc e9 b2 7c 3c 28 44 31 3e fb e1 17 3e
       -0.008985138 0.015423515 0.17311156 0.14832298
000370 c4 3c 69 3c 81 67 d3 bc 46 d3 a2 bc a7 94 d0 3b
       0.014235679 -0.02580619 -0.019876134 0.006365377
000380 02 c9 09 3d dc 8d 68 3d 12 38 b1 3d e2 8f 40 3d
       0.03363896 0.056775913 0.08653273 0.047012217
000390 11 35 be bd 02 9b 82 be 53 73 97 bd 72 9c 91 3c
       -0.09287465 -0.25508887 -0.07395043 0.017774794
0003a0 bc ac 93 3d c8 b8 90 3d db 9a 17 bd 65 d5 67 3c
       0.07210681 0.07066494 -0.037012916 0.014149998
0003b0 1b 28 3b 3c 9e cf 7c bb dc 41 18 be 2f fc d7 bc
       0.011423136 -0.0038575898 -0.14868873 -0.026365368
0003c0 ba 50 2f bd 78 87 cb bd ff e0 ae bd 47 c9 2c be
       -0.042801596 -0.09937948 -0.08539008 -0.16873656
0003d0 f4 44 20 be 94 22 5d 3d f9 6d 91 bd 49 00 1f 3e
       -0.15651304 0.053988054 -0.07101054 0.15527453
0003e0 86 a0 08 bc 3c f3 01 3e e8 cf ec 3c 7e 8f 12 3d
       -0.008339053 0.12690443 0.028907731 0.035781376
0003f0 c7 7e 9c 3d 19 6d a0 3d 14 2a ab 3d 10 ac a7 3c
       0.07641368 0.07833309 0.08357635 0.020467788

hidden.bias f4 [256]
000000 12 1b 60 bd a8 f6 8e 3d 95 cc 06 3d 73 b9 8b 3d
       -0.054713316 0.0698064 0.03290995 0.06822481
000010 15 33 cb 3c 5c 59 06 bd 7a 76 54 bd 73 78 e7 bc
       0.024804631 -0.032800063 -0.0518708 -0.028255677
000020 0b f6 d9 3b 78 a5 a3 bd 89 51 05 3d 02 9f 8a 3c
       0.006651645 -0.07990545 0.03254846 0.016921524
000030 e6 0d 8b bc 6f 58 f3 bc 24 89 1e 3a a2 52 18 3c
       -0.0169744 -0.029705254 0.0006047657 0.009297045
000040 df 9c 7e 3d 59 85 29 bd 22 d6 fb bc be 06 7d bc
       0.062161323 -0.041386936 -0.030741755 -0.015443502
000050 ce 39 64 bd cc 57 6e 3c bc c4 c9 bd c7 3b 72 bb
       -0.05571919 0.0145473 -0.09851977 -0.00369619
000060 9d ae 4e 3c 45 0e 7d 3c 1d bc 85 3c 5d 48 59 3c
       0.012614873 0.015445297 0.016325051 0.013261882
000070 b6 9c 0c 3d 91 83 e8 bc 23 c2 29 bb e2 b3 b7 3b
       0.03432914 -0.028383048 -0.0025903068 0.0056061605
000080 54 88 58 bc 2d 60 6c 3c 92 68 1e bd af ae e4 bb
       -0.013216097 0.014427227 -0.038673945 -0.0069788317
000090 0e 17 4d bd f9 c2 bb bb fc 5f 83 3d 98 08 e0 bb
       -0.050070815 -0.0057300297 0.06414792 -0.006836962
0000a0 33 18 8b bc 11 d9 9b 3c 2f a9 0f bd 77 c0 9a bd
       -0.016979313 0.019024404 -0.035073455 -0.07556241
0000b0 98 a7 4e 3d ae 56 3f 3d 24 01 5f 3d ca fc e0 bc
       0.0504528 0.046713524 0.054444447 -0.02746429
0000c0 41 4c 0b 3b 32 7d ac bc 68 63 1a bd c4 7c 12 bd
       0.0021255168 -0.021055792 -0.037692457 -0.035763517
0000d0 78 b2 bc 39 dc 99 c3 b8 bb d2 a3 bd 6b dc ad bc
       0.00035991124 -9.326983e-05 -0.07999178 -0.021223268
0000e0 cc 87 2e bc 5b 0d 50 3c 46 e2 3a 3d 5b c6 d6 3d
       -0.010652494 0.012698497 0.045625947 0.10487052
0000f0 60 17 10 bd dd fa 0b 3d 38 6e 80 3b b2 b2 20 bb
       -0.035178542 0.03417479 0.003919389 -0.0024520573
000100 9c 89 34 3c 76 7c ec 3c ad 56 b5 3d 36 a1 9c bd
       0.011019137 0.028867941 0.08854423 -0.07647936
000110 11 46 99 bd d8 59 42 3d 9d 69 c2 bb 87 2a 9f 3d
       -0.07484067 0.047448963 -0.0059330002 0.07771783
000120 b5 3d 74 bb 75 e3 50 bc 0e 36 a4 3c ac a7 59 bd
       -0.0037268226 -0.0127495425 0.020045307 -0.05313842
000130 b2 28 8f 3d 50 a6 6e 3c 71 1c e7 3b e5 87 9f bd
       0.06990184 0.014566019 0.007052951 -0.07789592
000140 6b 59 14 bd d2 44 36 bd 36 a4 55 bc f5 09 95 3d
       -0.036218088 -0.044499226 -0.013039639 0.0727729
000150 cf 89 a7 3c 5f 56 73 bc 08 ab d2 bc 3a e0 af 3d
       0.020451454 -0.014852135 -0.02571632 0.0858769
000160 16 91 82 bd c0 3a 09 3b 96 fc 1f bd 7e ab 81 bb
       -0.06375329 0.0020939559 -0.039059244 -0.003957211
000170 b0 5e 74 3d d8 45 5b 3d e8 a1 22 bc 98 d4 2f 3c
       0.059660614 0.053533405 -0.009926297 0.010731839
000180 11 3d a4 bc c9 75 bc 3b 33 ca 0a bb 03 68 3a bd
       -0.02004865 0.005751346 -0.002117765 -0.04550935
000190 e9 b7 b4 3c 5e eb df bb 40 21 13 bc 69 04 0e 3d
       0.022060351 -0.006833478 -0.008980095 0.034672175
0001a0 69 c2 34 bd 29 b4 a1 3c f3 ee 04 bd fb 34 12 3b
       -0.044130716 0.019739227 -0.032454442 0.002230941
0001b0 ec ec 51 bd 6a c0 07 bc 9b 21 3f bc 2b 11 b9 bb
       -0.051251337 -0.008285621 -0.011665727 -0.0056477985
0001c0 51 c2 d2 bd 47 f2 9c bd e2 b5 bb 3a 28 87 04 bd
       -0.10290969 -0.07663398 0.0014321173 -0.032355458
0001d0 77 5a aa bc 61 26 b3 3d cc 07 32 bd 2c 79 c0 3c
       -0.02079509 0.087475546 -0.043464467 0.02349528
0001e0 14 4a 01 bc a0 b9 05 bd 76 07 30 3c 81 6e 49 bd
       -0.007891197 -0.03264773 0.010743966 -0.04917765
0001f0 3f 1a 8f 3c c5 1e 6f bd 22 71 fe bc de 87 31 3d
       0.01746857 -0.058378953 -0.031059805 0.043342464
000200 42 d8 89 3d a6 c9 29 bc b2 91 24 3d d2 4a 13 bc
       0.06730701 -0.010363018 0.04017801 -0.0089900065
000210 a7 34 0a bd ff ce cb bd f6 a7 e8 bc 5d 3b e0 3c
       -0.03374162 -0.09951591 -0.028400403 0.027372057
000220 38 10 7e 3c 8f 68 2e bc f4 29 fb bc d4 f4 3c 3b
       0.015506797 -0.010645046 -0.030659653 0.0028832452
000230 43 0f b7 bc 85 81 61 bd 0e e2 66 3d 1c 1b 47 bd
       -0.022346145 -0.05505516 0.056367926 -0.048609838
000240 be 01 b4 bc c5 b7 6a bc 1a 53 3a bd 5e 7e 60 bd
       -0.021973487 -0.014326041 -0.045489408 -0.054808013
000250 68 41 dd 3c f9 d2 44 bd 59 b6 24 bd 74 79 14 3b
       0.027008727 -0.04805276 -0.040212963 0.00226554
000260 e0 29 41 bb 54 da 25 3a ab 2b a7 3d 65 1b 24 3d
       -0.0029474422 0.0006326784 0.08162626 0.040065188
000270 50 40 0c 3d 19 86 35 3d 8c 40 7d bd bb a9 dc bc
       0.03424102 0.04431734 -0.061829135 -0.026936403
000280 59 0b 44 bd d4 4f ce bb 73 7e 20 3d 2a a2 88 3d
       -0.047862384 -0.0062961373 0.03918309 0.06671555
000290 0f af 9b bd 7e ff 63 3c 11 7e e6 bc e8 1b f3 3c
       -0.07601749 0.013915895 -0.028136285 0.029676393
0002a0 e8 ba f5 3b 6d b9 eb 3b 6f a0 09 3c a2 e8 cc bc
       0.0074990876 0.0071937353 0.008400067 -0.025013272
0002b0 7c ed ee 3c 73 d9 1a 3d 26 94 32 3c 7a 4d 37 3b
       0.029165976 0.037805032 0.010899579 0.0027969764
0002c0 83 a4 6e 3c 9d f2 98 bc c5 d5 00 bb 58 5f 63 3d
       0.01456559 -0.018670375 -0.0019658667 0.05551085
0002d0 19 d1 a9 bb b1 28 9d 3d e2 f6 98 bc b0 4c f8 3c
       -0.005182397 0.07673777 -0.01867241 0.030310005
0002e0 4e 63 80 3d 6f 70 0f bd 5f 24 40 3c 65 21 10 3d
       0.06268941 -0.035019334 0.011727422 0.035188098
0002f0 2f 0d da bb 53 b6 c3 bc e9 ac 9a bd 91 cf 40 3d
       -0.0066544036 -0.02389065 -0.07552511 0.04707295
000300 0e cb 82 bd 08 e7 53 bd 80 d1 3a bb 45 e2 61 bc
       -0.06386386 -0.051734 -0.002850622 -0.013786857
000310 27 3f 8a 3d 9c b1 31 3c f9 4a 92 bd 49 5a 75 bd
       0.067503266 0.010845568 -0.07143206 -0.059900556
000320 6d bb b9 bd 52 fd b6 bc eb 3c 7d bd 58 34 6b bd
       -0.09068952 -0.02233759 -0.061825674 -0.057422966
000330 1f cd 9c bd 38 7f fd 3c 44 0c 09 bd 1a 93 f0 bb
       -0.07656311 0.030944452 -0.033458963 -0.0073417546
000340 65 92 5a bc f3 be 96 3b a8 37 03 b7 2f 36 e2 bc
       -0.013340567 0.0046003996 -7.821167e-06 -0.027613727
000350 ad a1 43 bd e4 1d 1d 3d 54 46 76 3c 98 b6 08 bc
       -0.047761608 0.038358584 0.015031416 -0.008344315
000360 be c0 c3 3c 0e 71 a9 3b cf 5f 77 bd ca 7b 15 bd
       0.023895618 0.005170948 -0.060394105 -0.036495008
000370 1e dc 4a bd c0 d6 34 bd 82 4d 83 3c bd 31 c4 3b
       -0.049526326 -0.044150114 0.01602817 0.0059873746
000380 bb d8 b1 bd d3 16 44 3b ce 09 3f 3b a2 47 0e bd
       -0.08683916 0.002992083 0.002915013 -0.034736283
000390 39 dd 8e bc 73 33 4f 3c 56 15 0c bd f5 72 bc 3b
       -0.017439472 0.012646544 -0.034200035 0.0057510086
0003a0 46 0d 7c bc 00 cc c0 3d eb ba c7 bb 0f 6f 59 bc
       -0.015384024 0.0941391 -0.0060952804 -0.013271107
0003b0 49 83 37 3d 4f 8e 2f bb 36 4e a3 3d 05 29 79 bc
       0.044802938 -0.0026787703 0.07973902 -0.015207534
0003c0 9b 5c e3 bc 4d 12 8c 3c af dc 11 bc 10 de 68 3c
       -0.027754119 0.01709857 -0.008902713 0.0142131
0003d0 85 8d 92 bd e9 50 77 3d 3d b9 7a 3d cf 42 3f 3a
       -0.07155899 0.060379896 0.061211813 0.0007296027
0003e0 20 f7 17 3d 26 c4 bf 3b 6d 2f 29 ba 6a 17 a2 3c
       0.03710091 0.00585224 -0.00064539054 0.019786555
0003f0 be 20 65 3c ea 11 da 3c b3 70 49 bd 07 fd ee 3c
       0.013984857 0.02661987 -0.049179744 0.029173387

output.weight f4 [10, 256]
000000 50 f2 d1 be 0d 71 15 3e 79 6a 17 3d 2e 56 ee 3c
       -0.41005182 0.14593907 0.036966775 0.029093828
000010 4c c0 c1 3e 32 0c e7 be 17 49 46 3e ca 37 ba 3e
       0.37842023 -0.45126492 0.19363819 0.3637069
000020 ec eb ad 3e c3 93 75 3e a8 53 82 3d c1 46 83 3e
       0.33969057 0.23982148 0.063636124 0.25639918
000030 02 05 c8 be 7a bd 11 bf 26 d4 86 3d 59 be 6f 3e
       -0.3906632 -0.56929743 0.06583433 0.23412456
000040 a0 ab ab be 4b d8 97 3e 6f d4 4d 3d 8e 6b ff 3e
       -0.33529377 0.29657206 0.05025142 0.49886745
000050 18 59 48 bf e0 da 0e bf 95 98 3e be 61 bf 6a 3e
       -0.78260946 -0.55802727 -0.18612893 0.22924568
000060 51 e1 6f 3e e9 8e 31 3e 7d e3 da be ad 3f c7 3d
       0.23425795 0.17339672 -0.42751685 0.09728942
000070 d4 ce bd bd b0 ec 84 be 06 a1 8d be 28 fa 82 3e
       -0.09267965 -0.25961828 -0.27661914 0.2558148
000080 70 fe 46 3c c6 81 7d 3e e3 dc 69 3e 38 08 d0 3e
       0.012145624 0.24756536 0.22838168 0.4063127
000090 c1 9f 23 bf b7 1c b9 3d 19 fd 7a be eb 0e d2 3d
       -0.6391564 0.0903868 -0.24510612 0.102567516
0000a0 f2 c2 05 bf e2 20 23 bc cf 87 9c 3e 51 2a 39 be
       -0.5225059 -0.00995657 0.30572364 -0.18082549
0000b0 d8 f7 83 3d b9 c3 88 3e 4a b0 17 bf 15 dd 38 3f
       0.06443757 0.26711825 -0.5925337 0.72212344
0000c0 85 82 8f bf 4d a6 c9 be 24 dd af 3c 34 cb 38 bd
       -1.1211706 -0.3938469 0.021467753 -0.045115665
0000d0 15 8f 71 bf e6 a8 11 3e 15 25 27 3e 86 53 ad be
       -0.9435895 0.14224586 0.1632274 -0.33852786
0000e0 af 25 ac be 7b 39 0d 3e cb 10 0f be 52 e2 dd 3d
       -0.336225 0.13791458 -0.1397125 0.10834183
0000f0 57 18 37 3e 82 d9 64 bf d9 8d 2e be 7f c6 69 3e
       0.17880379 -0.8939439 -0.17046298 0.22829627
000100 0b d9 82 bd de 7d 6a 3e fd 82 9c 3e ec fe 23 bf
       -0.06389054 0.22899577 0.30568686 -0.64060855
000110 69 ed 3a bf c1 72 91 3e fd 46 ba be 51 c0 05 bf
       -0.7301851 0.28407863 -0.36382285 -0.52246577
000120 d8 69 08 bf d0 ff 41 3e c9 5c dc 3e 61 f0 7d bf
       -0.53286505 0.18945241 0.4303954 -0.99194914
000130 53 a8 4a 3e 3f 4f 3d 3e 62 98 d8 bd c0 ec fc bd
       0.19790773 0.18487261 -0.1057594 -0.12349844
000140 7f 39 05 3f ab 85 82 bf 3f b0 81 3e a7 eb f4 3d
       0.5204086 -1.0197042 0.25329778 0.119590096
000150 b8 64 01 3e c8 e0 25 3e 15 1b 0d bd c7 6f 9c 3c
       0.12636077 0.16199028 -0.034449656 0.019096268
000160 c2 1a 4d bf 93 a3 31 3e 19 8e 02 bf 3a 3b f4 3d
       -0.80118954 0.17347555 -0.50998074 0.11925359
000170 01 8b 47 3e 2c 02 87 3e 00 81 eb be f5 8f 12 be
       0.1948662 0.26368845 -0.45996857 -0.14312728
000180 f3 26 23 bf df 6a d6 3d bf 81 a1 be 0d 93 31 bd
       -0.63731307 0.10469603 -0.315443 -0.04335313
000190 de 3c 40 bf ab 17 64 3d d8 9e e2 be 53 d8 23 bf
       -0.75092876 0.055686634 -0.44261813 -0.6400196
0001a0 bc 9d 95 3e bb 06 0b bf 08 d3 d0 be bf 4b 29 bf
       0.29221904 -0.54307145 -0.40786004 -0.66131204
0001b0 24 da 9d bf 89 93 46 be 7d fc 38 3f c2 3e f6 be
       -1.2332196 -0.19392218 0.72260267 -0.48094755
0001c0 78 5f c9 be 67 33 6a bf 93 9b e6 3d 19 e9 45 bf
       -0.3933065 -0.91484684 0.11260142 -0.77308804
0001d0 2a bd 39 3e 6b 88 ae 3d 4f 36 d5 3e b8 89 20 bf
       0.18138567 0.085221134 0.41642997 -0.6271014
0001e0 38 39 26 3e a0 8e 01 bf 61 a6 4c 3e 7f bc 86 bf
       0.16232765 -0.50608253 0.19985344 -1.0526274
0001f0 f5 e9 82 3e b1 d9 19 bf e8 82 bc be 6d b4 64 3e
       0.2556912 -0.60097796 -0.36818624 0.22334452
000200 26 98 20 bf 97 fe d8 be 5e 80 44 3e 18 ca 96 be
       -0.6273216 -0.42381737 0.19189593 -0.2945106
000210 e3 18 6a 3e 28 48 11 3e ea af 50 bf aa 64 24 3e
       0.22861056 0.14187682 -0.81518424 0.16054025
000220 53 7d 96 3e 8f 0d 70 3e e7 e3 08 3f f5 de 5f 3e
       0.2939249 0.23442672 0.5347275 0.21862395
000230 93 aa 1c be d4 92 29 bf 38 aa 21 3e 6c a2 60 3e
       -0.15299444 -0.66239667 0.1578759 0.21936959
000240 da b1 82 be 77 cb c8 3e 58 7a 84 bf c1 fd 80 bf
       -0.25526315 0.3921773 -1.0349836 -1.007744
000250 f2 0a aa be 22 5b 3e bf ee a7 2f 3e 51 77 fa be
       -0.33211476 -0.7435781 0.17153904 -0.48919156
000260 7c f1 0f 3e d9 a5 3d be 6c ca 38 3e ab ac 79 3e
       0.14056963 -0.18520297 0.18045968 0.24382274
000270 c1 23 88 3e 83 de 56 3e a6 a9 41 bf 07 a7 41 3e
       0.26589778 0.20983319 -0.7564949 0.18911372
000280 47 35 80 be 79 fd 2f 3e d6 a8 2b 3e f1 e7 c1 bd
       -0.25040647 0.17186536 0.16763625 -0.094680674
000290 84 7d 2c bf d5 72 cd bd aa a8 7e 3e 6b a9 4e bf
       -0.6737902 -0.10031668 0.24869028 -0.8072726
0002a0 53 e3 17 bf 2e 34 a7 3d f1 c2 2d bf 0d b4 5f bf
       -0.59331244 0.08164249 -0.6787558 -0.8738411
0002b0 9d 9f 0d 3e a2 40 af be fc 37 48 3e e3 72 21 bf
       0.13830419 -0.34228998 0.19552606 -0.6306593
0002c0 f5 5a 90 bd 63 38 4b be 7a 16 01 3e 48 dc ab 3d
       -0.07048599 -0.19845729 0.1260623 0.08391625
0002d0 bd 55 90 bd 39 86 24 bf 63 9e a2 be 7e 50 b8 be
       -0.07047603 -0.6426731 -0.31761464 -0.3599891
0002e0 2c f9 87 3e d7 a7 f3 be b2 37 76 bd 31 8b 46 be
       0.2655729 -0.4758899 -0.06011171 -0.19389035
0002f0 f9 fe df bd 6c 73 7a be 5b fc a0 3d 67 06 5c 3e
       -0.10937304 -0.24458092 0.07860633 0.21486817
000300 c2 7f 1e 3d e1 5b 9e be 1b 26 81 3e ca aa 1d 3e
       0.038696058 -0.30929473 0.25224385 0.15397182
000310 43 33 51 3e 0a 57 26 3e 73 01 99 3e 09 03 27 bd
       0.20429711 0.1624414 0.29883918 -0.04077438
000320 ac 01 d4 3d 25 e5 6d 3e 9d f1 1e be 3e 2e 07 bf
       0.103518814 0.23231943 -0.15521856 -0.52804935
000330 01 46 b2 bd 73 fe 35 bf ba 91 98 bb 6f c5 08 bf
       -0.087047584 -0.71091384 -0.004656044 -0.5342626
000340 f2 cb 0b 3e 31 34 18 be f5 d4 5b 3d 50 ac 5b 3e
       0.13652018 -0.1486366 0.05366989 0.21452451
000350 91 df 76 bf 32 6d 8f bf 28 31 ae 3d 29 55 9d 3e
       -0.96434885 -1.1205199 0.085054696 0.30729035
000360 d8 10 84 bd 06 6a 53 bc 42 b2 b6 be 04 d9 1f 3f
       -0.06448525 -0.012903696 -0.35682875 0.62440515
000370 29 41 0d 3c ed 9f a6 be cb dd 60 3e 11 c1 1d bd
       0.008621492 -0.3254389 0.21959607 -0.0385142
000380 6f b4 6d 3e a9 5c 37 3e fe 60 65 3e c5 9d 3a bf
       0.23213361 0.17906441 0.22400281 -0.7289699
000390 ac 36 30 bf c4 3a d5 3d 44 fa fb be 0f 3c da 3e
       -0.6883342 0.10411599 -0.49214375 0.42623946
0003a0 b5 a4 b2 3e 51 b8 a2 3d 54 06 72 be 7e 7c 99 3e
       0.34891286 0.07945312 -0.23635226 0.29977793
0003b0 26 65 7a 3e 96 ce 6a bd ef e4 48 3e 49 2d 5e 3e
       0.24452648 -0.057325922 0.19618581 0.21696962
0003c0 f2 e7 db bd 82 7b c2 be 22 1c 1b 3e 9f a6 69 3d
       -0.107375994 -0.37984854 0.1514745 0.057043668
0003d0 3a ac 2d bd a7 b0 89 3e d3 f0 7d bd f8 c0 24 be
       -0.042400576 0.26892588 -0.061997246 -0.16089237
0003e0 04 87 b8 be 43 d3 9d 3e cf 31 37 3e 74 fa 6a 3e
       -0.3604051 0.30825242 0.17890094 0.22947103
0003f0 d5 f7 81 be 1a d8 91 bc 53 ad 0f bf f9 db 16 bf
       -0.25384393 -0.01780324 -0.56123847 -0.589294

output.bias f4 [10]
000000 19 78 a4 3d 93 d3 6d bd 1b b6 30 bd b7 f3 c8 bc
       0.08030719 -0.0580631 -0.04314242 -0.024530275
000010 77 ba 33 bd 98 03 38 3c 85 1d 4b bd 30 3c c2 bb
       -0.043879 0.011231326 -0.0495887 -0.005927585
000020 ab 55 2c bd fb 76 f8 bb
       -0.042073887 -0.007582543
