models/model.pth (torch, 816000 bytes, 4 tensors)

hidden.weight f4 [256, 784]
-0.05048011 0.014059844 -0.044021714 0.009903501 0.015211029 -0.019984769 -0.03345946 0.017481823
-0.010688422 -0.039287962 -0.032813344 -0.10986056 -0.07697025 0.023402156 0.07233085 0.015872432
0.1358192 0.056137085 0.0069038733 -0.04099066 -0.04542883 -0.03949857 -0.042285066 -0.04608768
0.01746336 -0.014930704 -0.035194267 -0.01422663 -0.036179934 -0.032671016 -0.016821712 -0.052730907
-0.04969636 -0.042580854 0.015463266 -0.013953466 -0.012621208 -0.035949487 -0.014230386 -0.050550118
-0.017699113 0.063848466 0.022538567 0.093381226 0.37116805 0.17139664 0.030782625 0.02956765
-0.01374428 -0.037876662 0.0030833518 -0.039470028 -0.043469843 -0.024198472 -0.048372995 0.016451731
0.006183488 -0.048764605 -0.01478119 -0.0315202 -0.03750671 -0.026304536 0.014103111 -0.052449085
-0.04826687 -0.06373246 -0.032526504 0.13292724 0.17759827 -0.056405537 0.056111254 0.2766608
0.11746483 0.21937953 0.20767537 0.012858976 0.0015198063 -0.04620154 0.01011222 0.0033501529
0.007489402 -0.040712845 0.0075335903 0.00809355 -0.029318515 -0.04787449 -0.04184774 -0.030295838
-0.049392443 -0.03737271 0.016307466 -0.078225136 -0.014803273 -0.040390257 0.23242511 0.10418854
-0.030494371 -0.014319549 -0.012947086 -0.12648554 -0.025173685 -0.060803205 0.20270458 0.09542129
-0.11572906 -0.02493851 -0.0044840025 -0.025624149 -0.0084603615 -0.002546885 -0.010282247 -0.015845353
-0.011006819 0.010962298 0.016348558 -0.027790515 -0.04924612 -0.072087966 -0.17702219 -0.17804188
-0.14591932 0.13412887 0.08637137 0.028538069 0.20742859 0.18424417 0.05223538 -0.04874936
0.039793987 -0.08591531 -0.32675815 -0.21017559 -0.11204737 -0.080079414 -0.09129832 -0.026023332
-0.03484911 -0.05015656 0.0042058565 -0.03553957 -0.04632913 -0.038739126 -0.03485484 -0.014050757
-0.06883024 -0.050525874 -0.2222605 -0.33278447 0.0474899 -0.040227074 0.16850539 0.2524179
0.30899727 0.065183625 -0.01747694 0.08327197 -0.02270092 -0.056991342 -0.008246406 -0.062520064
-0.1843084 -0.11065346 -0.113267325 -0.070953615 -0.06750838 0.07864579 0.027182478 -0.0398338
-0.033294532 -0.031190272 -0.021597333 0.012578901 -0.029819064 -0.20196894 -0.3268417 -0.18677507
-0.06775583 -0.031838745 0.21220376 0.2229868 0.15562555 0.11603509 -0.005323617 0.18963076
0.27246705 0.06178086 0.08846317 0.077304974 -0.077265 -0.12911049 -0.054511897 0.033031836
0.06641915 0.13346307 0.021226967 -0.020693796 -0.041513976 -0.040696424 -0.007921892 -0.032209594
-0.09770786 -0.1628501 -0.09016117 -0.13567172 -0.062077314 -0.07777241 0.10439219 0.24826881
-0.0005701955 -0.11588357 0.16502218 0.34636766 0.12532455 0.019386623 0.16146637 -0.019986765
0.012589732 -0.17415357 0.08183767 0.122109435 0.1644437 0.11664951 0.065473914 -0.024241695
-0.109012716 -0.035859995 -0.11414078 -0.15072016 -0.16769265 -0.09491098 0.07224158 0.12114279
-0.01640886 -0.019582152 0.035548817 -0.007858268 0.116185926 -0.004402184 0.17325057 0.20314465
0.11920512 -0.048671257 0.010041985 0.08581926 -0.042750884 0.15197441 -0.0004737969 0.09809416
0.17174965 -0.062216643 0.051233925 0.010613529 -0.07799394 -0.08945934 -0.11817596 -0.15524584
00000000: 3bc4 4ebd 435b 663c 1d50 34bd 4b42 223c
00000010: ae37 793c 19b7 a3bc c90c 09bd 0a36 8f3c
00000020: 7e1e 2fbc 6aec 20bd 4967 06bd 93fe e0bd
00000030: 94a2 9dbd e1b5 bf3c 3222 943d e706 823c
00000040: 3014 0b3e 00f0 653d e339 e23b d3e5 27bd
00000050: 9513 3abd 41c9 21bd 1b33 2dbd 6fc6 3cbd
00000060: 520f 8f3c e99f 74bc dd27 10bd d016 69bc
00000070: 6931 14bd 0bd2 05bd b0cd 89bc 5dfc 57bd
00000080: 698e 4bbd 4369 2ebd a359 7d3c 149d 64bc
00000090: 2fc9 4ebc c53f 13bd 9126 69bc a40d 4fbd
000000a0: bbfd 90bc fcc2 823d cda2 b83c a83e bf3d
000000b0: bd09 be3e 9a82 2f3e d82b fc3c db37 f23c
000000c0: b02f 61bc 8f24 1bbd 0f12 4a3b 53ab 21bd
000000d0: 6f0d 32bd e03b c6bc c322 46bd c8c5 863c
000000e0: db9e ca3b 65bd 47bd ce2c 72bc 531b 01bd
000000f0: a3a0 19bd 9c7c d7bc bc10 673c dad4 56bd
00000100: 7bb3 45bd 2a86 82bd 833a 05bd 141e 083e
00000110: 52dc 353e 7e09 67bd ead4 653d 7ca6 8d3e
00000120: 6791 f03d 07a5 603e daa8 543e 74ae 523c
00000130: 3d34 c73a d33d 3dbd baad 253c 3d8e 5b3b
00000140: a869 f53b 83c2 26bd 56dc f63b cf9a 043c
00000150: 622d f0bc 0b18 44bd 8968 2bbd fa2e f8bc
00000160: bb4f 4abd 2014 19bd 3c97 853c 8034 a0bd
00000170: 6d89 72bc 4170 25bd d900 6e3e cd60 d53d
00000180: 55cf f9bc 8b9c 6abc 0420 54bc 6d85 01be
00000190: 0b39 cebc c80c 79bd ca91 4f3e 3d6c c33d
000001a0: 5b03 edbd d94b ccbc 8aee 92bb bce9 d1bc
000001b0: 549d 0abc a4e9 26bb df76 28bc 1dce 81bc
000001c0: f255 34bc 369b 333c 69ed 853c efa8 e3bc
000001d0: 4db6 49bd dba2 93bd 4e45 35be 9c50 36be
000001e0: e06b 15be 1459 093e 79e3 b03d abc8 e93c
000001f0: 2968 543e 81aa 3c3e c4f4 553d 69ad 47bd
00000200: 05ff 223d 5ef4 afbd d84c a7be 4538 57be
00000210: 1779 e5bd ad00 a4bd 9dfa babd e22e d5bc
00000220: f1bd 0ebd f770 4dbd 48d1 893b f191 11bd
00000230: 9dc3 3dbd ebac 1ebd f3c3 0ebd 2535 66bc
00000240: def6 8cbd 38f4 4ebd 4298 63be ba62 aabe
00000250: c584 423d 25c5 24bd ad8c 2c3e eb3c 813e
00000260: e434 9e3e fe7e 853d cd2b 8fbc 7f8a aa3d
00000270: 48f7 b9bc c16f 69bd ef1b 07bc 850a 80bd
00000280: 57bb 3cbe 489e e2bd b3f8 e7bd 2150 91bd
00000290: d541 8abd 0b11 a13d caad de3c c428 23bd
000002a0: d95f 08bd be82 ffbc e4ec b0bc bc17 4e3c
000002b0: 1c47 f4bc f2d0 4ebe cc57 a7be f741 3fbe
000002c0: 92c3 8abd 5869 02bd f14b 593e a756 643e
000002d0: 4e5c 1f3e cea3 ed3d bc71 aebb 912e 423e
000002e0: cd80 8b3e ed0d 7d3d 2e2c b53d 1252 9e3d
000002f0: 1d3d 9ebd 8a35 04be de47 5fbd 644c 073d
00000300: c306 883d 8baa 083e 2de4 ad3c 0986 a9bc
00000310: 8f0a 2abd 4bb1 26bd d3ca 01bc 35ee 03bd
00000320: 0f1b c8bd 2dc2 26be 6ba6 b8bd 87ed 0abe
00000330: c844 7ebd 2447 9fbd 93cb d53d 2e3a 7e3e
00000340: 2c79 15ba 5d54 edbd 93fb 283e 1a57 b13e
00000350: 1455 003e b2d0 9e3c 7157 253e 49bb a3bc
00000360: 2a45 4e3c 5055 32be 829a a73d 8314 fa3d
00000370: ee63 283e f0e5 ee3d 3017 863d 8596 c6bc
00000380: 0f42 dfbd eee1 12bd a4c2 e9bd 6356 1abe
00000390: 9fb7 2bbe b060 c2bd 65f3 933d b619 f83d
000003a0: e06b 86bc c06a a0bc a39b 113d f7bf 00bc
000003b0: e3f2 ed3d 3240 90bb 9968 313e 2705 503e
000003c0: d021 f43d 835b 47bd 2387 243c 02c2 af3d
000003d0: 8d1b 2fbd 2e9f 1b3e f267 f8b9 97e5 c83d
000003e0: 24df 2f3e e1d6 7ebd aada 513d 5ee4 2d3c
000003f0: 49bb 9fbd 7536 b7bd 3d06 f2bd c4f8 1ebe

hidden.bias f4 [256]
0.041834235 -0.023355491 -0.071197085 -0.011988367 -0.046827696 -0.0004069813 -0.055875216 -0.009100517
0.04400642 0.040774673 0.06110009 -0.0012947603 -0.047987144 0.04323579 -0.019180594 0.028013576
0.0031196633 -0.01840041 0.057707615 0.016884161 -0.01908155 -0.03587224 -0.060609534 -0.015968442
0.05988962 -0.01951825 -0.008727387 -0.0014382822 0.005336755 0.012553426 -0.049207382 0.049927175
0.094696194 0.03416596 -0.022735 0.034305103 -0.025525184 -0.022464184 0.0019908065 -0.055962432
0.052520018 -0.00090769335 -0.015607891 -0.080809295 -0.025177512 0.020913595 0.04266761 0.022317933
-0.02209899 -0.010632451 0.009104213 -0.039111428 0.019505035 -0.015651602 0.11490861 -0.051100835
-0.010050476 0.029247466 0.009294889 -0.016101355 -0.053519778 0.017593287 -0.011093085 0.11257226
-0.038676873 0.007535374 0.0063585388 -0.016689513 -0.07370397 -0.0064979303 -0.017552434 -0.053486243
-0.01542876 0.037641026 -0.002083456 -0.012109801 0.03433352 0.027876407 0.0022848449 -0.031282526
0.035823703 0.016593648 -0.006593066 -0.01652814 0.037243534 -0.080327444 -0.049307987 -0.05174402
-0.0704758 0.019714344 -0.05606806 -0.029632427 -0.0080604665 0.055838414 0.060697787 -0.05136264
-0.04405576 -0.09645762 0.036220167 0.020505097 0.008313687 -0.033391614 -0.003439691 0.00018682901
0.041617975 0.0049648453 -0.06712906 0.014117201 -0.053948592 -0.04397943 0.0588431 -0.0346335
-0.008274875 -0.007959601 0.033949472 0.034469295 -0.085798085 -0.06111253 -0.06099984 0.07830737
0.0053634844 -0.04057736 -0.023312833 0.041186757 0.013203154 0.017207177 -0.02009837 -0.024846891
0.0149398595 0.009775411 -0.011526142 -0.030174443 -0.029860198 -0.00020051881 0.055920843 0.051797815
0.003813376 -0.054613583 -0.0014458785 0.06853981 -0.078959204 0.07442967 -0.04036862 0.019602932
-0.0066990163 0.028924769 -0.053425245 -0.04381911 0.0050537735 -0.0022343318 -0.00936081 -0.048365623
-0.045425072 -0.0034717394 0.011016539 -0.0376488 0.008484607 0.022577344 0.032550655 0.02296429
-0.07783691 -0.056453682 -0.06448464 -0.0006859249 -0.0883567 0.00072342815 0.057821367 -0.0067250156
0.017881868 0.033711992 0.00034214108 -0.02006401 0.080488056 -0.02591058 0.009539522 0.024749191
0.02867484 -0.032532863 0.0026195499 -0.01146144 0.09176131 -0.020130811 -0.09142145 -0.021834852
-0.019999404 -0.009465749 0.07401115 0.039181992 0.025899058 0.016169008 0.011598487 -0.018326141
-0.030914487 0.052251145 -0.0399568 -0.037702292 -0.036568504 -0.03258007 -0.021362487 -0.043449473
0.07696343 -0.032706965 -0.00089218596 0.06486412 0.039240707 -0.017392937 0.010757861 0.032547455
0.080031045 0.031136388 0.04913671 0.014162223 0.053460915 -0.024049073 0.016934637 -0.051303454
-0.003713069 -0.02661627 -0.03498619 0.05577917 0.00063006685 0.05969212 0.051891115 -0.07325345
-0.029296575 0.03528912 0.040404502 -0.0854051 -0.04451783 -0.03265157 -0.016167441 0.058716327
-0.014741682 -0.06342296 0.037733518 -0.019979421 -0.02546788 0.010836012 -0.02265351 0.029816221
0.050217036 0.037043076 0.060767576 -0.029348645 0.049533848 -0.0017907739 -0.07238822 -0.0781189
-0.00685554 0.0018896091 -0.045655146 0.0058402065 0.008794113 -0.01622526 -0.021312546 0.0148399435
00000000: 605a 2b3d 0454 bfbc c7cf 91bd db6a 44bc
00000010: 66ce 3fbd 1b60 d5b9 69dd 64bd 561a 15bc
00000020: 1340 343d 5803 273d 1744 7a3d f2b4 a9ba
00000030: 2b8e 44bd 0318 313d 9f20 9dbc ba7c e53c
00000040: 4473 4c3b 75bc 96bc d25e 6c3d a750 8a3c
00000050: e950 9cbc c5ee 12bd b441 78bd 40d0 82bc
00000060: d14e 753d bde4 9fbc 50fd 0ebc be84 bcba
00000070: f2df ae3b e3ac 4d3c ae8d 49bd 7080 4c3d
00000080: 14f0 c13d 9bf1 0b3d c03e babc 8283 0c3d
00000090: 311a d1bc cf06 b8bc 3178 023b dd38 65bd
000000a0: 3b1f 573d 45f2 6dba 3db8 7fbc 587f a5bd
000000b0: 1241 cebc fd52 ab3c 3bc4 2e3d 19d4 b63c
000000c0: f108 b5bc bb33 2ebc d629 153c 4e33 20bd
000000d0: 06c9 9f3c ca37 80bc 3555 eb3d 1c4f 51bd
000000e0: c0aa 24bc 6298 ef3c 9749 183c fde6 83bc
000000f0: 8e37 5bbd cc1f 903c c5bf 35bc 498c e63d
00000100: a46b 1ebd 4ceb f63b 4a5b d03b 72b8 88bc
00000110: 1bf2 96bd 97ec d4bb 1fca 8fbc 6414 5bbd
00000120: e9c8 7cbc 7a2d 1a3d 978a 08bb 3068 46bc
00000130: 4ea1 0c3d 105d e43c 56bd 153b 1b22 00bd
00000140: e0bb 123d 67ef 873c a50a d8bb 0666 87bc
00000150: ad8c 183d b782 a4bd 2cf7 49bd 8af1 53bd
00000160: 9e55 90bd fa7f a13c 9fa7 65bd b4bf f2bc
00000170: 0c10 04bc d2b6 643d 3e9e 783d a261 52bd
00000180: d073 34bd 938b c5bd 995b 143d 4efa a73c
00000190: 2136 083c a5c5 08bd 706c 61bb 88e7 4339
000001a0: 9c77 2a3d 24b0 a23b f67a 89bd d54b 673c
000001b0: 33f9 5cbd c623 34bd 7605 713d dbdb 0dbd
000001c0: 5793 07bc fc68 02bc 9a0e 0b3d ad2f 0d3d
000001d0: e8b6 afbd 2251 7abd f8da 79bd 9d5f a03d
000001e0: 2bc0 af3b 7234 26bd 8efa bebc 72b3 283d
000001f0: 0b52 583c 11f6 8c3c 56a5 a4bc b58b cbbc
00000200: 50c6 743c 0c29 203c 25d8 3cbc 6530 f7bc
00000210: 609d f4bc 5c42 52b9 410d 653d f229 543d
00000220: d5e9 793b 7eb2 5fbd a283 bdba 9a5e 8c3d
00000230: 5db5 a1bd 956e 983d 9159 25bd 5496 a03c
00000240: 6c83 dbbb a3f3 ec3c 6ed4 5abd ab7b 33bd
00000250: 209a a53b de6d 12bb 155e 19bc 081b 46bd
00000260: a40f 3abd 1f86 63bb b77e 343c a135 1abd
00000270: 0503 0b3c 1ff4 b83c d653 053d 9b1f bc3c
00000280: f568 9fbd fa3b 67bd 8610 84bd a4cf 33ba
00000290: 5cf4 b4bd 71a4 3d3a 19d6 6c3d 855d dcbb
000002a0: ff7c 923c 9615 0a3d 6661 b339 475d a4bc
000002b0: ecd6 a43d 6d42 d4bc a84b 1c3c d1be ca3c
000002c0: 80e7 ea3c 2e41 05bd c1ac 2b3b c3c8 3bbc
000002d0: 5bed bb3d 5fe9 a4bc 2b3b bbbd 01df b2bc
000002e0: cad5 a3bc 3b16 1bbc 2893 973d 4c7d 203d
000002f0: 432a d43c de74 843c 9507 3e3c b420 96bc
00000300: 6140 fdbc 4c05 563d bea9 23bd b86d 1abd
00000310: dbc8 15bd ae72 05bd 6200 afbc 13f8 31bd
00000320: 019f 9d3d bdf7 05bd 96e1 69ba 7bd7 843d
00000330: ddba 203d a27b 8ebc bd41 303c 7b50 053d
00000340: 51e7 a33d bd11 ff3c 9343 493d ab08 683c
00000350: d5f9 5a3d 9002 c5bc 82ba 8a3c 9223 52bd
00000360: f656 73bb 5d0a dabc ae4d 0fbd b378 643d
00000370: 122b 253a b97f 743d c78b 543d e805 96bd
00000380: 5fff efbc 538b 103d 317f 253d dee8 aebd
00000390: 5458 36bd a7bd 05bd 9571 84bc 8880 703d
000003a0: 1987 71bc e6e3 81bd 768e 1a3d e2ab a3bc
000003b0: 04a2 d0bc 8789 313c db93 b9bc 2641 f43c
000003c0: 61b0 4d3d 7bba 173d 6ce7 783d 926c f0bc
000003d0: 01e4 4a3d 67b8 eaba 4640 94bd cdfc 9fbd
000003e0: 70a4 e0bb c3ac f73a e400 3bbd 345f bf3b
000003f0: 2f15 103c d6ea 84bc a697 aebc 3c23 733c

output.weight f4 [10, 256]
0.25810802 -0.6590515 -0.17594634 -0.22086206 -0.46276966 -0.6270402 -0.83603466 -0.6078444
-0.37851864 0.15399124 -0.49749207 -0.6149709 -0.06920748 0.33468804 0.307505 -0.7067564
0.25499755 -0.71316475 -0.2305094 0.197747 0.08783975 0.101118095 0.1627968 -0.3495443
0.22811626 -0.7562806 -0.7839795 0.15559886 0.12527676 -0.46259844 -0.7216972 -0.16820836
0.110551015 0.3268772 0.46829623 -0.97774225 -0.23897323 0.3607933 0.40918207 -0.44056317
-0.580628 -0.32214195 -0.3259155 -0.42054543 -0.16566187 0.16328487 0.111206874 -0.17864901
0.33765364 -0.6382004 -0.13507706 -0.15319352 0.18113661 0.2912831 0.23474154 -0.85657424
0.30221316 -0.034168836 0.58672017 -0.6162474 -0.20804395 0.09477814 0.40279335 0.020915456
-0.24134111 0.39223388 0.23999251 -0.5893449 -0.82203805 -0.49711746 0.20256202 -0.3804334
-0.51857585 -0.14108266 -0.22673194 -0.2193186 -0.17592268 0.2739231 0.3611966 -0.016810566
0.03008593 0.32225466 0.13146041 -0.52021754 0.015303355 -0.42458776 0.070564054 -0.10616038
0.4830038 0.42137888 -0.16995007 -0.73754513 -0.42726415 0.17026268 -0.18959136 0.58474475
-0.7513122 -0.44214737 -0.27039638 0.2985276 0.23290516 -0.33413938 -0.1822471 0.34685016
0.18887524 0.29146135 -0.10874421 -0.30555066 0.15832666 -0.45152706 -0.73408306 0.34907445
0.34732223 0.053939223 0.24220079 0.17034857 -0.18348005 -0.15273823 -0.7698993 0.17574738
-0.453514 0.30992454 -0.017720986 0.21058378 -0.4093416 -0.31256816 0.12331137 -0.37227973
0.07618626 0.4760923 0.14908378 -0.43811914 -0.06210918 0.20573588 -0.0005846977 0.039126597
-0.31021947 -0.17769174 0.11937654 0.1584866 -0.45086265 0.24583723 -1.1713487 0.18519811
-0.08502109 0.059926443 -0.1699398 0.16469862 -1.0167073 0.3771536 -0.071831025 -0.7986493
0.26142833 -0.87087154 -0.48309663 0.13866374 0.32772532 0.13664575 -0.5984993 -1.079484
-0.5755865 0.34876493 -0.17581843 -1.2127348 0.20963831 0.009034159 -0.0705692 -0.8075599
0.29510865 0.057040896 -0.06215103 0.2474621 0.127382 0.21927421 -0.109460756 0.14888604
-0.5052301 -0.24534546 -0.46458316 -0.5186209 0.1626649 -0.27757144 -0.90231645 0.058154162
-0.6250575 0.34230363 0.2067938 0.25530326 0.19998053 0.13690574 0.51524097 -0.9382087
-0.81619984 0.1547058 -0.49550188 0.3024793 -0.22745901 0.20139688 0.47018588 0.21210119
-0.01060635 -0.38564098 -0.3598416 0.24794099 0.17253928 0.41073242 0.2647284 -0.15806626
0.23919867 -0.9881261 0.18046004 0.1719264 0.12391316 0.12283786 0.15401699 0.032589663
0.067044675 0.09213811 0.08277189 0.03541046 0.3251799 0.17943363 -0.0058892374 -0.28747866
0.17721586 0.2538203 -0.41100636 -0.3128199 -0.16876926 0.2508571 0.14217384 0.24232003
0.20738499 -0.9690499 0.13357233 -0.96550786 -0.02207422 0.07863087 0.17989792 0.19765107
0.004103273 0.088759035 0.16657507 0.1830961 0.3076698 0.118493654 -0.13540065 0.13358733
-0.035242952 0.35153037 -0.3274583 -0.07412726 -0.60727656 -0.1059306 0.078687586 0.046209402
00000000: bc26 843e 99b7 28bf 472b 34be aa29 62be
00000010: 25f0 ecbe b585 20bf 5e06 56bf b19b 1bbf
00000020: 32cd c1be e1af 1d3e 48b7 febe bc6e 1dbf
00000030: a7bc 8dbd 3b5c ab3e 4c71 9d3e fded 34bf
00000040: 0a8f 823e f791 36bf a80a 6cbe 317e 4a3e
00000050: 54e5 b33d 0117 cf3d 34b4 263e 78f7 b2be
00000060: 4f97 693e 9b9b 41bf e1b2 48bf 4f55 1f3e
00000070: 8d48 003e b4d9 ecbe 26c1 38bf d03e 2cbe
00000080: 9268 e23d 735c a73e 86c4 ef3e 514d 7abf
00000090: 66b5 74be e6b9 b83e 5080 d13e 7f91 e1be
000000a0: 09a4 14bf caef a4be 65de a6be bb51 d7be
000000b0: 44a3 29be 2634 273e 6ec0 e33d c4ef 36be
000000c0: f0e0 ac3e 1a61 23bf a451 0abe c3de 1cbe
000000d0: e07b 393e 0f23 953e 1660 703e 7348 5bbf
000000e0: afbb 9a3e 9ff4 0bbd 4b33 163f 64c2 1dbf
000000f0: 7909 55be 0b1b c23d ee3a ce3e e456 ab3c
00000100: 2022 77be e1d2 c83e 99c0 753e 4fdf 16bf
00000110: 1671 52bf 2e86 febe 6b6c 4f3e 2bc8 c2be
00000120: 63c1 04bf f977 10be 6b2c 68be 0e95 60be
00000130: 1325 34be a63f 8c3e c3ee b83e 50b6 89bc
00000140: c576 f63c 90fe a43e 8f9d 063e fa2c 05bf
00000150: ecba 7a3c 9163 d9be e383 903d 9d6a d9bd
00000160: 464c f73e f9be d73e 6407 2ebe c2cf 3cbf
00000170: 5ec2 dabe 5759 2e3e 3d24 42be d5b1 153f
00000180: ff55 40bf 2461 e2be 6571 8abe 9cd8 983e
00000190: b17e 6e3e 5114 abbe fc9e 3abe 5896 b13e
000001a0: 8368 413e 6c3a 953e 49b5 debd 2371 9cbe
000001b0: 6220 223e 8e2e e7be deec 3bbf e3b9 b23e
000001c0: 38d4 b13e 60ef 5c3d 7c03 783e db6f 2e3e
000001d0: 32e2 3bbe 6967 1cbe 1f18 45bf 1ff7 333e
000001e0: fd32 e8be 6eae 9e3e 9a2b 91bc 46a3 573e
000001f0: 3995 d1be ef08 a0be ac8a fc3d 739b bebe
00000200: 8b07 9c3d 5fc2 f33e 6ba9 183e 2751 e0be
00000210: 3266 7ebd 6dac 523e 6646 19ba 3643 203d
00000220: 16d5 9ebe d3f4 35be b07b f43d 504a 223e
00000230: 78d7 e6be c1bc 7b3e c1ee 95bf 93a4 3d3e
00000240: 8a1f aebd 6e75 753d b304 2ebe c1a6 283e
00000250: 7723 82bf 471a c13e 251c 93bd 4874 4cbf
00000260: efd9 853e 70f1 5ebf 7158 f7be defd 0d3e
00000270: 9dcb a73e ddec 0b3e 4037 19bf 882c 8abf
00000280: a359 13bf 5191 b23e bf09 34be e53a 9bbf
00000290: 6dab 563e 0204 143c 9686 90bd 3fbc 4ebf
000002a0: 7b18 973e b7a3 693d 1492 7ebd b466 7d3e
000002b0: 6d70 023e 6b89 603e f62c e0bd 9575 183e
000002c0: c356 01bf d73b 7bbe d8dd edbe 57c4 04bf
000002d0: a191 263e d81d 8ebe 36fe 66bf 0f33 6e3d
000002e0: c503 20bf 6c42 af3e c1c1 533e 1cb7 823e
000002f0: b2c7 4c3e 0531 0c3e d5e6 033f 722e 70bf
00000300: 79f2 50bf 326b 1e3e 6cb2 fdbe 91de 9a3e
00000310: 04eb 68be fc3a 4e3e 34bc f03e 0e31 593e
00000320: 42c6 2dbc bc72 c5be 283d b8be 3ee4 7d3e
00000330: 23ae 303e 854b d23e 7b8a 873e 1fdc 21be
00000340: 7ff0 743e d5f5 7cbf 84ca 383e 790d 303e
00000350: 2fc6 fd3d 6a92 fb3d a1b6 1d3e bd7c 053d
00000360: b84e 893d e8b2 bc3d 4f84 a93d 8f0a 113d
00000370: fb7d a63e 73bd 373e 81fa c0bb 6730 93be
00000380: 1378 353e bcf4 813e 6d6f d2be ee29 a0be
00000390: d9d1 2cbe 5870 803e 0596 113e be22 783e
000003a0: bb5c 543e a713 78bf 2fc7 083e 862b 77bf
000003b0: ffd4 b4bc 3909 a13d 2937 383e 0b65 4a3e
000003c0: c074 863b 4cc7 b53d a892 2a3e 8b7d 3b3e
000003d0: e586 9d3e cdac f23d 78a6 0abe 1ecb 083e
000003e0: ea5a 10bd cafb b33e 9da8 a7be 08d0 97bd
000003f0: 7a76 1bbf 24f2 d8bd f526 a13d 1246 3d3d

output.bias f4 [10]
0.037455805 0.02116196 0.041512962 0.00586678 -0.068119094 -0.018590009 -0.02075374 -0.028514404
-0.012183942 0.02504419
00000000: 426b 193d d95b ad3c 7f09 2a3d 1e3e c03b
00000010: 0682 8bbd 134a 98bc bf03 aabc 0a97 e9bc
00000020: 289f 47bc 7929 cd3c
